trained_models/pose_gru_4class.pt (torch, 757546 bytes, 10 tensors)

gru.weight_ih_l0 f4 [384, 102]
0	0xbbbb7802	-0.005721093
1	0xbd114ffa	-0.035476662
2	0xbbcf7cfd	-0.0063320384
3	0x3d30d949	0.04317597
4	0xbd8260f9	-0.06366152
5	0xbd44469b	-0.047918897
6	0xbd75b6bc	-0.059988722
7	0xbc19e0c2	-0.009391965
8	0x3dc34e5c	0.0953643
9	0xbd87f604	-0.06638721
10	0xbd1efe43	-0.0388167
11	0xbcfb3575	-0.030665139
12	0xbcc90067	-0.024536325
13	0x3dc663af	0.09686982
14	0x3dcb0794	0.09913555
15	0x3cfae115	0.030624906
16	0x3d4d7b1e	0.05016624
17	0xbd18f081	-0.037338737
18	0xbdef54e7	-0.11686116
19	0xbd91e82e	-0.07124363
20	0xbc88d497	-0.016702933
21	0x3c893d5b	0.01675289
22	0xbdc034a3	-0.0938504
23	0x3b9da239	0.004810598
24	0xbd327b80	-0.04357481
25	0xbd5b036f	-0.05347007
26	0x3d976c1d	0.07393668
27	0xbd1cdbae	-0.03829544
28	0xbde293ba	-0.11063333
29	0xbbee1846	-0.007266077
30	0xbe259851	-0.16171385
31	0xbda4d112	-0.080476895
32	0x3dab81d8	0.08374375
33	0x3cc6ad62	0.024252597
34	0x3d1fdc60	0.039028525
35	0x3dd2550b	0.10270127
36	0xbc0730e6	-0.008251404
37	0xbda4452d	-0.08021007
38	0xbc44737b	-0.011990423
39	0x3c74947d	0.0149279805
40	0xbe0487c3	-0.12942414
41	0xbc6afa25	-0.014341866
42	0xbc007d43	-0.007842365
43	0xbdd87c69	-0.10570604
44	0x3d34fc46	0.0441859
45	0xbd598e38	-0.053114146
46	0x3ba9b170	0.005178623
47	0x3ddf22b8	0.10895294
48	0xbd8462e0	-0.064641714
49	0x3d866738	0.06562656
50	0x3d3a64ef	0.045506414
51	0x3d124206	0.035707496
52	0x3a5ab90b	0.00083436136
53	0x3e0d0081	0.13769723
54	0x3d22fe86	0.039793514
55	0x3de72b7b	0.1128759
56	0x3d31c57a	0.04340122
57	0xbca360e4	-0.019943662
58	0xbb566a74	-0.003271726
59	0xbcb2d537	-0.021830184
60	0xbd4008c3	-0.046883356
61	0x3d36ad73	0.044599008
62	0x3d15d1b1	0.03657693
63	0xbe098ad6	-0.13431868
64	0x3dc527ba	0.09626718
65	0x3ccbc428	0.024873808
66	0x3d27e2b0	0.04098767
67	0xbd23f646	-0.040029787
68	0x3d1a6e1a	0.037702657
69	0xbd8f9d77	-0.07012456
70	0x3d951c11	0.07280744
71	0xbc2c50ed	-0.010517341
72	0xbdd62e96	-0.10458104
73	0x3e00f12d	0.12592001
74	0x3dbde1a3	0.092715524
75	0x3c9a33d3	0.01882354
76	0x3d3e1331	0.04640502
77	0x3d8d0ce8	0.06887227
78	0xbdfbe21a	-0.12298985
79	0x3da498c4	0.0803695
80	0x3dc2fe5b	0.09521171
81	0xbc991ecd	-0.018691445
82	0xbcd20bc9	-0.025640385
83	0xbbe29f9b	-0.006915999
84	0xbd408ff0	-0.04701227
85	0x3cc9cb84	0.024633177
86	0x3dc6c664	0.09705809
87	0xbdd1ce41	-0.10244418
88	0x3d991b55	0.07475916
89	0xbaf2d336	-0.001852608
90	0x3bcc1938	0.0062285922
91	0xbd373f1a	-0.044737913
92	0x3a11a662	0.0005556104
93	0x3d4bfa74	0.049799398
94	0xbd1be51c	-0.038060293
95	0x3d9e70e4	0.07736376
96	0xbc452d20	-0.012034684
97	0x3ceb5a69	0.028729634
98	0xbc1016bb	-0.008794482
99	0xbd89939a	-0.06717606
100	0x3d82451b	0.06360837
101	0x3db6db45	0.08928541
102	0x3c82ff75	0.015990952
103	0xba3d06d1	-0.00072107936
104	0xbcdb686a	-0.026783187
105	0xbce3dd32	-0.027815435
106	0xbc365a65	-0.01112995
107	0x3b440244	0.0029908577
108	0xbd3f6002	-0.04672242
109	0x3d61cd06	0.055127166
110	0x3d93eae3	0.072225355
111	0xbcc3ee9d	-0.02391749
112	0xbc6ca432	-0.014443444
113	0x3db1f871	0.086899646
114	0xbd5ec96e	-0.054391317
115	0x3d4e3f25	0.050353188
116	0xbd2651bc	-0.04060529
117	0xbc1fcdb4	-0.009753633
118	0xbbb211ab	-0.005434235
119	0x3d2afabf	0.041743036
120	0xbd59ba8e	-0.053156428
121	0xbb1938ff	-0.002337992
122	0x3d51a9dc	0.05118738
123	0xbd3f52d6	-0.046709858
124	0xbd709d37	-0.05874368
125	0xbd154fbb	-0.03645299
126	0xbda3ada6	-0.07992105
127	0xbdbc19e9	-0.091846295
128	0xbc650b07	-0.01397968
129	0x3c0d2136	0.008613875
130	0xbc563044	-0.013073031
131	0xbddd0fe7	-0.10794049
132	0xbdb9bdc4	-0.09069398
133	0xbd1558ba	-0.03646157
134	0xbda6d6c9	-0.08146436
135	0xbddcb8c4	-0.10777429
136	0x3b19ea2c	0.0023485525
137	0xbd63f532	-0.05565376
138	0xbde0db8c	-0.10979375
139	0x3d8a9a0a	0.06767662
140	0x3c22ad4c	0.0099290125
141	0x3d5c82b4	0.053835586
142	0xbb6b65fe	-0.0035918946
143	0x3dc72bc8	0.097251475
144	0x3c8d1096	0.017219823
145	0xbcee1a14	-0.02906517
146	0xbc522470	-0.01282607
147	0xbda086d6	-0.07838218
148	0x3dc36a1c	0.09541723
149	0x3d9e690a	0.07734878
150	0x3d1c6d2d	0.038190056
151	0xbd2dafb5	-0.042403895
152	0xbcae07a0	-0.02124387
153	0xbc8bdbf1	-0.01707265
154	0x3d680715	0.05664738
155	0xbc407d47	-0.011748618
156	0x3d84c6d0	0.06483233
157	0xbd1eab49	-0.03873757
158	0x3d8d3691	0.06895173
159	0xbae92c7b	-0.0017789745
160	0x3d222d3c	0.03959392
161	0x3bd27824	0.0064230133
162	0xbd8ba6c9	-0.06818921
163	0xbc651559	-0.01398214
164	0x3d83d17b	0.064364396
165	0x3c9b828d	0.01898315
166	0xbd7cb832	-0.0616991
167	0xbd7b409d	-0.061340917
168	0xbcf66ab6	-0.03008018
169	0x3ce3228b	0.027726432
170	0xbbde85bd	-0.006790845
171	0xbd5cad39	-0.053876135
172	0xbc2920b6	-0.01032274
173	0xbd1808b7	-0.037117686
174	0xbcda0719	-0.026614713
175	0xbd22eabd	-0.039774645
176	0x3d880111	0.066408284
177	0xbdaefe0e	-0.08544551
178	0xb9ed72f4	-0.0004528981
179	0x3d6f80ca	0.058472432
180	0xbde04209	-0.10950095
181	0x3dc0e6f0	0.09419048
182	0xbd5486a5	-0.05188622
183	0x3d340e87	0.043959167
184	0x3d8a830f	0.06763279
185	0x3d503d39	0.050839636
186	0xbdb0a590	-0.086253285
187	0x3d5a2cfb	0.053265553
188	0x3d784765	0.060614962
189	0xbd31a827	-0.043373253
190	0x3de134b3	0.1099638
191	0xbd0901a2	-0.033448823
192	0xbd3aa0e1	-0.045563582
193	0xbc877d6c	-0.016539298
194	0x3d8d97c2	0.06913711
195	0xbbe82a90	-0.007085152
196	0x3c8dd46b	0.017313203
197	0x3ddead09	0.108728476
198	0x3d84a674	0.06477061
199	0xbd7f6244	-0.062349573
200	0x3d3fbcdd	0.046810973
201	0x3c0925ad	0.008370799
202	0x3d02f841	0.031975035
203	0x3da075aa	0.07834943
204	0xbc43dc2a	-0.011954347
205	0xbdf0c6d8	-0.117566764
206	0x3cd5f28b	0.02611663
207	0x3d846854	0.064652115
208	0x3cd91749	0.026500361
209	0x3d03aabb	0.032145243
210	0x3c804212	0.015656505
211	0xbd17101d	-0.0368806
212	0x3b1b7f3f	0.0023726968
213	0xbca6b722	-0.020350996
214	0x3c99f49c	0.018793397
215	0x3da2e21c	0.07953283
216	0x3d72e966	0.059304617
217	0xbde3c9d2	-0.111224785
218	0x3db3c687	0.087781005
219	0x3d886ee9	0.066617794
220	0x3d2bdf12	0.041960783
221	0x3c424b4b	0.011858772
222	0xbbb52379	-0.0055279103
223	0x3de6b210	0.112644315
224	0xbc6426f8	-0.0139253065
225	0xbd9e9b2e	-0.07744442
226	0x3d9ed470	0.07755363
227	0xbd46c3d1	-0.04852659
228	0x3d457c86	0.048214458
229	0xbc990beb	-0.01868244
230	0xbd2bc207	-0.041933086
231	0x3d163b49	0.036677632
232	0xbd544734	-0.051825717
233	0xbc9c8d12	-0.019110236
234	0xbcf6fb2e	-0.030149069
235	0x3dad2879	0.08454985
236	0xbd9b9b58	-0.07597989
237	0xbd59ffb9	-0.05322239
238	0xbdce9d21	-0.10088564
239	0x3c96de8f	0.018416671
240	0x3dacecb8	0.08443588
241	0xbdab75fc	-0.08372113
242	0x3cd735c9	0.026270764
243	0xbc906f71	-0.017631264
244	0x3d0c295b	0.034219127
245	0xbdebc58b	-0.11512288
246	0x3cb9f90f	0.022701768
247	0xbd4f4c33	-0.05060978
248	0xbcb4b6af	-0.022059767
249	0x3d872606	0.06599049
250	0xbce643d2	-0.028108511
251	0xbdc83596	-0.09775846
252	0xbcdd72c6	-0.027032267
253	0xbe02c956	-0.12772116
254	0xbbc0f2ec	-0.0058883335
255	0x3db12436	0.08649485

gru.weight_hh_l0 f4 [384, 128]
0	0xbcc473a9	-0.023980932
1	0xbd294d1a	-0.041333295
2	0x3dfd13f9	0.12357325
3	0xbd06a560	-0.032872558
4	0x3dae72a0	0.08517957
5	0x3d0d9b18	0.034571737
6	0x3daeffad	0.0854486
7	0x3c24457a	0.01002633
8	0xbe0394c6	-0.12849721
9	0x3dbc7fd1	0.092040665
10	0xbdab1c54	-0.083550125
11	0x3a7f4c90	0.0009738887
12	0x3e24dcec	0.160999
13	0x3d904dad	0.070460655
14	0x3d0653e1	0.032794837
15	0x3c8daa13	0.017293012
16	0xbe04f1c1	-0.12982847
17	0x3d444982	0.047921665
18	0xbd7da0cc	-0.061920926
19	0xbe17713a	-0.14789286
20	0x3d31746a	0.04332391
21	0xbdb17f3e	-0.08666848
22	0x3ce04a3c	0.027379148
23	0x3bd70173	0.006561452
24	0x3ced04da	0.028932977
25	0xbcd0c5f2	-0.025485013
26	0xbcc533f3	-0.024072623
27	0xbc945e43	-0.018111354
28	0x3bf190b8	0.007371988
29	0x3da4fa6c	0.08055577
30	0x3dc5ad7a	0.09652229
31	0xbd8d89ce	-0.0691105
32	0x3d4bdf8d	0.04977374
33	0xbcedb24e	-0.029015686
34	0xbc0dcad8	-0.008654319
35	0xbd737974	-0.059442
36	0xbcce9404	-0.025217064
37	0xbbc92b9e	-0.006139233
38	0xbcee6a3c	-0.02910339
39	0xbb5db732	-0.0033831117
40	0x3dd141f3	0.10217657
41	0xbd9f58d1	-0.07780612
42	0x3c978d90	0.01850012
43	0xbd2af480	-0.04173708
44	0x3d1c9e04	0.038236633
45	0x3cae39f3	0.021267867
46	0x3dad6572	0.08466615
47	0xbe044738	-0.12917793
48	0xbde68451	-0.11255706
49	0x3c18a3de	0.009316413
50	0xbda899b8	-0.082324445
51	0xbd900e8f	-0.07034027
52	0xbdd4e2a1	-0.103947885
53	0x3d86e8fa	0.065874055
54	0x3e07931e	0.13239715
55	0x3db3559e	0.087565646
56	0x3dcb5ff5	0.09930412
57	0x3e0eb982	0.13937953
58	0x3d946ce9	0.072473355
59	0x3d9cda16	0.07658784
60	0x3d6ad4df	0.057331916
61	0xbd1d95c6	-0.038472913
62	0x3d8f82ca	0.07007368
63	0xbc0c9c54	-0.008582193
64	0xbce07996	-0.027401727
65	0x3c9373fb	0.01799964
66	0x3abaa873	0.0014240876
67	0x3c82fae7	0.01598878
68	0x3d34ba5b	0.044123035
69	0x3d86862d	0.06568561
70	0x3db72c98	0.089440525
71	0x3db19faf	0.08673035
72	0x3d6cf6db	0.057852607
73	0x3d21fc65	0.039547343
74	0xbdbaa0ef	-0.09112727
75	0xbd43e28b	-0.04782347
76	0x3d40e738	0.047095507
77	0x38293e3f	4.035071e-05
78	0xbbd1fa46	-0.0064080087
79	0x3c54ee67	0.012996293
80	0x3dde9205	0.10867695
81	0xbd932b07	-0.07185941
82	0xbd4d2bdb	-0.050090652
83	0xbd6df983	-0.05809928
84	0x3b879d39	0.0041386154
85	0xbe155fec	-0.14587373
86	0xbd6b223c	-0.057405695
87	0xbdcfe4c2	-0.10151054
88	0xbcc117cc	-0.023570918
89	0x3c1d3629	0.009595432
90	0x3dba10e0	0.0908525
91	0x3c13627b	0.008995648
92	0x3dab09e3	0.08351495
93	0xbdee7a51	-0.11644424
94	0x3ccf4bff	0.025304792
95	0xbd2314c2	-0.039814718
96	0x3db3503e	0.08755539
97	0xbc87c0d5	-0.016571442
98	0x3d572d6a	0.052533545
99	0x3d326304	0.04355146
100	0x3c8f7158	0.017510101
101	0x3d2daf49	0.042403493
102	0x3ccf56cb	0.02530994
103	0xbd88ff7f	-0.06689357
104	0x3bd3ec08	0.006467346
105	0xbc49b185	-0.01231039
106	0xbda31ede	-0.07964872
107	0x3c526632	0.012841748
108	0x3d9929a5	0.07478646
109	0x3d558a4e	0.05213385
110	0xbdc669b4	-0.0968813
111	0x3d9bef72	0.0761403
112	0x3d00ce3e	0.031446688
113	0x3d9d758d	0.07688437
114	0x3c207526	0.009793555
115	0x3e06c7f8	0.1316222
116	0xbd801309	-0.06253631
117	0x3cda5b5b	0.02665489
118	0xbdc82450	-0.09772551
119	0xbca45246	-0.020058762
120	0xbc044a3b	-0.008074339
121	0xbb0bb471	-0.0021317268
122	0x3d1d609f	0.038422223
123	0x3e14ffa5	0.14550646
124	0xbd371679	-0.044699166
125	0x3d77ade9	0.060468588
126	0xbc06e93a	-0.0082343165
127	0xbc3ec2ac	-0.011643093
128	0xbda306e8	-0.07960302
129	0xbdea6e91	-0.1144687
130	0xbd047c51	-0.03234512
131	0xbc879950	-0.016552597
132	0xbd61abd0	-0.055095494
133	0x3d6a1fdd	0.057159293
134	0x3da3cd16	0.079981014
135	0xbcb06f7b	-0.021537533
136	0xbd376f59	-0.044783924
137	0xbc51c144	-0.012802426
138	0xbd9c5064	-0.07632521
139	0x3dc073ed	0.09397111
140	0x3e039a8c	0.12851924
141	0xbd2a1ace	-0.04152947
142	0xbd8644bf	-0.06556081
143	0x3d281f4d	0.041045476
144	0xbd5e6f05	-0.054305095
145	0x3c3e66d6	0.011621198
146	0x3c0dc56c	0.008653026
147	0xbc9cd9c9	-0.019146817
148	0x3db62a79	0.0889482
149	0x3dd102ac	0.10205588
150	0xbd236d8a	-0.039899386
151	0x3d2b3554	0.041798905
152	0x3c69466d	0.014237982
153	0x3d9da559	0.07697553
154	0xbb499df4	-0.0030764313
155	0x3ba78b2a	0.005113025
156	0x3dbaabaa	0.091147736
157	0x3c441e1d	0.01197007
158	0xba0a25eb	-0.00052699324
159	0xbd4ba3e4	-0.049716845
160	0xbc9b46d0	-0.018954664
161	0xbccd9520	-0.025095522
162	0xbd91f541	-0.071268566
163	0x3ceb284b	0.028705737
164	0xbcd3ca47	-0.02585329
165	0xbd09fc92	-0.033688135
166	0xbd7af982	-0.061273105
167	0x3cee0cdf	0.029058872
168	0x3b2ef353	0.0026695326
169	0xbd7de98d	-0.06199031
170	0xbcee27bd	-0.029071683
171	0x3dc35e43	0.09539463
172	0x3d2352ce	0.03987389
173	0xbd519bc9	-0.05117396
174	0xbcb35c57	-0.021894617
175	0xbd2f1516	-0.04274472
176	0xbdf6fec3	-0.12060311
177	0x3b920667	0.0044563296
178	0xbdba7670	-0.091046214
179	0xbe290884	-0.16507155
180	0xbdcad90b	-0.09904679
181	0x3e0b21a2	0.13587049
182	0xbdb63511	-0.0889684
183	0xbd518269	-0.05114976
184	0x3d93cf8f	0.07217323
185	0x3c7355d0	0.014852002
186	0xbd413c18	-0.04717645
187	0x3dd1c0fc	0.10241887
188	0x3c4a5e1f	0.012351542
189	0x3d2f2562	0.04276026
190	0xbd20125d	-0.039080013
191	0xbc88cbcd	-0.016698742
192	0x3d911472	0.07083978
193	0x3d29cdaf	0.04145592
194	0xbc669b44	-0.014075104
195	0x3b7906b9	0.0037998392
196	0xbd7f3cb5	-0.062313754
197	0xbd4618ad	-0.048363376
198	0xbc9b5162	-0.018959705
199	0x3c81e06f	0.015854089
200	0xbd9338b8	-0.071885526
201	0xbd7bfaaa	-0.06151835
202	0x3d5c90fc	0.053849205
203	0xbe02cc3d	-0.12773223
204	0xbc9a02c3	-0.018800145
205	0xbde963fe	-0.11396025
206	0xbdb16f7f	-0.08663844
207	0x3dcdcf46	0.100493
208	0xbc2a8b36	-0.010409167
209	0xbd88d856	-0.06681888
210	0xbda9c981	-0.08290387
211	0xbd48d7b7	-0.049033847
212	0xbdd3e963	-0.10347249
213	0xbc9d7c08	-0.019224182
214	0x3c93ed97	0.018057628
215	0xbd08f845	-0.033439893
216	0x3c827460	0.015924633
217	0x3d8b4464	0.06800154
218	0x3d835590	0.06412804
219	0xbd5de197	-0.054170217
220	0x3dc1efb3	0.09469547
221	0x3d878053	0.06616273
222	0xbd6f87c2	-0.058479078
223	0x3d8b37ed	0.06797776
224	0x3ca8e72b	0.020618042
225	0xbc236665	-0.009973143
226	0x3cda39f7	0.026638968
227	0xba24a705	-0.00062809914
228	0xbce31918	-0.027721927
229	0x3c6b023c	0.014343794
230	0xbd1ac5e4	-0.03778638
231	0xbd28917a	-0.041154362
232	0xbd462baa	-0.048381485
233	0x3d96a511	0.07355703
234	0xbd8ada51	-0.06779922
235	0x3d9c129d	0.07620738
236	0x3d5f8165	0.05456676
237	0x3dbca0cf	0.09210359
238	0x3d25a25d	0.040438045
239	0xbd2cc0f5	-0.042176206
240	0x3cc51ed4	0.024062552
241	0x3b9b5b55	0.0047411122
242	0xbd9813ae	-0.074256286
243	0xbcec0f7e	-0.028815981
244	0xbcdd758a	-0.027033586
245	0x3d36b2b1	0.044604007
246	0xbdbd7898	-0.09251517
247	0xbd3ad689	-0.045614753
248	0x3d93cba1	0.072165735
249	0x3d1b7d45	0.037961263
250	0xbd818191	-0.06323541
251	0x3d2c242c	0.042026684
252	0xbd230d73	-0.039807748
253	0xbc7ee66c	-0.015557867
254	0x3db94751	0.09046806
255	0x3d7e33c4	0.062061086

gru.bias_ih_l0 f4 [384]
0	0x3dace9fe	0.08443068
1	0x3cea5a5e	0.028607544
2	0xbd3cb9b4	-0.046075538
3	0xbd859d54	-0.065241486
4	0x3dd98ab2	0.10622157
5	0xbd55bbef	-0.05218118
6	0xbdcdc47c	-0.10047242
7	0x3cb6064d	0.022219801
8	0x3dc0da11	0.09416593
9	0x3de60932	0.112322226
10	0x3c69c544	0.014268223
11	0x3dd80a7e	0.10548876
12	0x3d9856f0	0.07438457
13	0x3b0914c3	0.0020916916
14	0xbd8e019d	-0.069339015
15	0x3ce17a7e	0.02752423
16	0xbc46816a	-0.012115816
17	0xbd052ba7	-0.032512333
18	0x3c09149d	0.008366731
19	0xbc24e419	-0.010064148
20	0x3dfe3d5e	0.124140486
21	0x3d7ac2d4	0.06122096
22	0x3d579af4	0.05263801
23	0x3dbd8cb1	0.092553504
24	0x3d8b29d8	0.067950904
25	0x3d2c1de5	0.042020697
26	0x3cc7b386	0.024377596
27	0x3d9745d9	0.07386369
28	0xbcf91747	-0.030406607
29	0x3bc6b6ac	0.0060642567
30	0x3dbdaa28	0.0926097
31	0x3ba8f278	0.0051558577
32	0xbd4baab1	-0.04972333
33	0xbc4f080b	-0.012636195
34	0xbbba7a8b	-0.005690878
35	0x3cf3193b	0.029675117
36	0x3dd3a157	0.103335075
37	0x3ce7f748	0.028316155
38	0x3d5480c9	0.05188063
39	0x3d9a87ad	0.07545409
40	0x3d0bdf16	0.0341483
41	0x3e011f55	0.12609608
42	0x3dcf5c72	0.101250544
43	0x3d1c92a8	0.0382258
44	0xbd99c295	-0.07507817
45	0x3d106d03	0.03526021
46	0x3d3575d7	0.044301834
47	0x3d01e884	0.031715885
48	0x3cb111d0	0.021614939
49	0xbd88e1f1	-0.0668372
50	0x3c2e0eca	0.010623643
51	0x3d803b40	0.06261301
52	0x3c21c7d7	0.009874306
53	0x3dd948fb	0.10609623
54	0xbc9ebb43	-0.019376403
55	0xbd551d02	-0.052029617
56	0x3d1d83e3	0.038455855
57	0x3d0c7826	0.03429427
58	0x3d0a9096	0.033829294
59	0x3cb1ef21	0.02172047
60	0x3d2c8ad5	0.042124588
61	0xbc0884f6	-0.008332482
62	0x3d26915a	0.04066596
63	0x3c940304	0.018067844
64	0x3d80d6cf	0.062909715
65	0xbd62fc77	-0.05541655
66	0x3dbe9db9	0.09307427
67	0x3d3f1edf	0.0466603
68	0x3dd734ea	0.105081394
69	0x3aeddad9	0.0018146887
70	0x3cf7ba17	0.030240102
71	0x3c4c153a	0.012456233
72	0xbc0675c7	-0.008206791
73	0x3d4da483	0.05020572
74	0x3d975807	0.07389837
75	0xbd6fb685	-0.058523674
76	0x3c3751f7	0.011188976
77	0x3e02bd63	0.12767558
78	0x3cee76c6	0.02910937
79	0xbd4cffea	-0.050048746
80	0x3c123572	0.008923875
81	0x3de8677f	0.11347865
82	0xbce2b74e	-0.027675297
83	0xbd2452fe	-0.04011821
84	0xbc17dcaa	-0.009268919
85	0x3d7af630	0.06126994
86	0x3ce07dc2	0.027403716
87	0x3d8025f1	0.06257237
88	0x3ca8f78d	0.020625854
89	0x3e11ea3d	0.14249511
90	0xbd348a00	-0.04407692
91	0xbd25f4c7	-0.04051664
92	0xbd148ca4	-0.036266938
93	0xbbb22c3c	-0.005437402
94	0xbc12069a	-0.008912707
95	0x3d15d647	0.036581304
96	0xbd3bd144	-0.045853868
97	0x3da3f7e9	0.080062695
98	0x3b8cbda8	0.0042950697
99	0xbc96f3b0	-0.018426746
100	0xbd4c5270	-0.049883306
101	0xbd8c869b	-0.068616115
102	0x3c5368bf	0.012903391
103	0xbc760d5a	-0.015017832
104	0xbc686a0f	-0.014185443
105	0x3dc93e4a	0.09826334
106	0xbbe2a510	-0.0069166496
107	0x3d27ffe2	0.041015513
108	0x3be9ba57	0.007132809
109	0xbd1b3c8d	-0.037899543
110	0x3da7506d	0.08169637
111	0xbcb14135	-0.021637538
112	0x3deca279	0.11554427
113	0x3a87b9fc	0.001035511
114	0x3d6193eb	0.055072706
115	0x3de5825f	0.11206507
116	0xbdd7e201	-0.10541154
117	0xbd022e1e	-0.031782262
118	0x3cff55e6	0.03116889
119	0x3d4b833f	0.049685713
120	0xbd280430	-0.04101962
121	0xbd82b086	-0.063813254
122	0x3d0f0709	0.03491882
123	0x3dd775c6	0.105205104
124	0x3dcb07b2	0.09913577
125	0x3d7ab3b3	0.06120653
126	0x3ca584e5	0.02020497
127	0xbd883261	-0.06650234
128	0xbdb9f70b	-0.09080323
129	0xbd5f69f1	-0.054544393
130	0x3d30f6c8	0.0432041
131	0x3c7c8813	0.015413302
132	0x3d4f0a6a	0.05054704
133	0xbca61976	-0.020275813
134	0x3ad510cc	0.0016255616
135	0xbda736c3	-0.08164742
136	0xbacfab1c	-0.0015843841
137	0xbc58d9de	-0.013235537
138	0x3d6b10bc	0.057389006
139	0x3daebca2	0.085320726
140	0x3d9fe856	0.078079864
141	0xbce36b97	-0.027761264
142	0xbdbdc2a5	-0.09265641
143	0xbc22ecc7	-0.009944147
144	0x3d83155d	0.06400559
145	0xbd891d93	-0.06695094
146	0x3ceedb0c	0.029157184
147	0x3d2d4f01	0.042311672
148	0x3d843774	0.06455889
149	0xbc9a42b7	-0.01883064
150	0xbdb1bf77	-0.08679097
151	0xbd554076	-0.052063428
152	0x3d54e137	0.051972594
153	0x3d9c79e0	0.07640433
154	0x3cfc48e4	0.030796476
155	0x3b90ba78	0.00441676
156	0xbda2bb57	-0.079458885
157	0x3d67efb3	0.05662508
158	0xbda6bf40	-0.08141947
159	0xbd851304	-0.064977676
160	0xbdab6cee	-0.08370386
161	0xbda8c284	-0.08240226
162	0xbdb87a1d	-0.09007666
163	0xbda1a3ea	-0.07892592
164	0x3d9e92a9	0.07742817
165	0xbd5abec7	-0.053404596
166	0xbd50b986	-0.05095818
167	0xbcb1a158	-0.02168338
168	0xbd857c5e	-0.06517862
169	0x3d0f79b3	0.03502817
170	0xbd3677bf	-0.044547793
171	0x3d33adee	0.043867044
172	0xbd8f203a	-0.069885686
173	0xbcc1f9ef	-0.023678748
174	0x3d3a5d1b	0.04549895
175	0xbbbcc184	-0.0057603735
176	0xbd28e546	-0.041234277
177	0x3c3dde6a	0.011588672
178	0xbca033e6	-0.019555997
179	0xbd1719e8	-0.03688994
180	0xbd8424c0	-0.06452322
181	0x3db56bfa	0.088584855
182	0xbcd8fd32	-0.02648792
183	0xbd017561	-0.031606082
184	0xbd455082	-0.04817248
185	0xbbdd9970	-0.006762676
186	0xbd3b234f	-0.04568797
187	0xbda0adc2	-0.07845642
188	0xbd787518	-0.060658544
189	0xbda7f15c	-0.082003325
190	0xbd0c49ad	-0.03424995
191	0xbd0b884f	-0.03406554
192	0xbd15555a	-0.03645835
193	0xba9cc501	-0.0011960567
194	0xbc15d5bb	-0.009145196
195	0x3cac76f1	0.02105281
196	0xbd3fd40e	-0.04683309
197	0x3c62d9bf	0.01384586
198	0xbcc7b013	-0.02437595
199	0xbd78607b	-0.060638886
200	0xbcf2bdc0	-0.029631495
201	0x3c46eca5	0.012141381
202	0x3d7f2acf	0.062296685
203	0x3d115d5c	0.035489425
204	0xbccab21c	-0.024743132
205	0xbd737eb1	-0.059446994
206	0xbd5ce212	-0.053926535
207	0xbd80ce8b	-0.06289395
208	0x3d36e606	0.04465296
209	0xbd1fe374	-0.039035276
210	0x3c7c5ef5	0.015403499
211	0xbcd8f437	-0.026483638
212	0x3d8c22c2	0.06842567
213	0xbd8639f6	-0.06554024
214	0x3d2f0be4	0.04273595
215	0xbd9710bd	-0.073762394
216	0x3cf8528d	0.0303128
217	0xbc4a9ffc	-0.012367245
218	0xbd9130b9	-0.07089371
219	0x3ce4ee16	0.02794556
220	0x3db9bf2c	0.09069666
221	0xbcd3e2b4	-0.025864936
222	0x3d19885e	0.037483566
223	0xbcfb83f3	-0.030702567
224	0x3d051dd2	0.032499142
225	0xbc1bebd3	-0.009516674
226	0x3c3358bc	0.010946449
227	0xbd83d48c	-0.064370245
228	0x3c5b2294	0.013374943
229	0x3c62ed45	0.013850515
230	0x3ae57884	0.001750723
231	0x3d3d5184	0.046220317
232	0xbc879b08	-0.016553417
233	0xbb388330	-0.0028154366
234	0xbd9f6fbf	-0.07784986
235	0x3d821fcb	0.0635372
236	0xbdbce221	-0.09222818
237	0xbd485bad	-0.048915554
238	0x3cbf4736	0.023349386
239	0xbd7d2aed	-0.061808515
240	0x3d808a8d	0.062764265
241	0x3b980353	0.004639068
242	0xbd9d6d8a	-0.076869085
243	0x3dc717c3	0.09721329
244	0xbbf1abaa	-0.0073752003
245	0xbda36009	-0.079773016
246	0xbd6ae5c0	-0.057348013
247	0xbc43a056	-0.011940083
248	0xbc531ded	-0.012885553
249	0xbd0db9fa	-0.03460119
250	0x3c9e95a2	0.01935846
251	0xbd017c9c	-0.031612977
252	0xbcf3d947	-0.029766692
253	0x3c9ff752	0.019527111
254	0x3d9d9b79	0.0769567
255	0x3d617a4c	0.055048272

gru.bias_hh_l0 f4 [384]
0	0x3c985775	0.01859639
1	0xbd8d9a3e	-0.06914185
2	0xbbc4d393	-0.006006667
3	0xbd43731c	-0.0477172
4	0x3d85b681	0.065289505
5	0x3d197032	0.037460513
6	0x3d0ebe9e	0.034849755
7	0x3dcd96ee	0.10038553
8	0x3d13a3d6	0.036044918
9	0x3d9b8333	0.07593384
10	0xbcc9f957	-0.024655027
11	0x3c843186	0.016136896
12	0x3d775594	0.060384348
13	0x3d31eccd	0.04343872
14	0x3d877ee6	0.06616001
15	0xbdad7dfa	-0.08471294
16	0x3ace2922	0.0015728811
17	0x3d8f8c82	0.070092216
18	0x3df63c41	0.12023211
19	0xbcb64fa5	-0.022254774
20	0x3c0e608f	0.008690014
21	0x3d6ac56d	0.057317186
22	0x3d00b49e	0.03142225
23	0xbd77005c	-0.060303077
24	0xbcbf42a9	-0.023347216
25	0xbde10b82	-0.10988523
26	0x3d4a61c2	0.049409635
27	0x3e01072c	0.12600392
28	0xbbae2483	-0.005314411
29	0xbd736885	-0.05942585
30	0x3d86c5af	0.06580674
31	0x3d0963fb	0.033542614
32	0x3d56a6f3	0.05240531
33	0x3d34cf44	0.044142976
34	0xbd92cc55	-0.071678795
35	0x3dadf6fb	0.084943734
36	0x3dc50bad	0.096213676
37	0xbbff8074	-0.007797295
38	0xbc89b325	-0.016809056
39	0x3d0e69ad	0.03476875
40	0x3d9e1b54	0.07720056
41	0x3d4e7ec2	0.050413854
42	0x3d9c5785	0.076338805
43	0x3b09eb77	0.002104489
44	0xbdf78669	-0.120861836
45	0xbd193720	-0.037406087
46	0x3e005de4	0.12535816
47	0xbd51f7f1	-0.051261846
48	0xbc72c522	-0.014817508
49	0x3d3122a7	0.043245938
50	0x3d1c88ca	0.03821639
51	0x3d682d51	0.056683842
52	0xbcf2ffb9	-0.029662954
53	0x3d3a433e	0.045474283
54	0xbc5f63ad	-0.013634604
55	0xbc574c2e	-0.013140721
56	0x3d4709d0	0.048593342
57	0x3ba547b4	0.005043948
58	0x3dac0edf	0.08401274
59	0x3ac19d33	0.001477158
60	0xbd9b31f7	-0.075778894
61	0x3d3f8317	0.046755876
62	0xbc83e53c	-0.016100518
63	0xbd939f81	-0.07208157
64	0xbd080deb	-0.0332164
65	0xbd89ee51	-0.06734908
66	0xbd8eb1d5	-0.069675125
67	0x3db13af9	0.08653826
68	0xbb5b4ef8	-0.0033463817
69	0x3da300a9	0.0795911
70	0x3dde8add	0.1086633
71	0xbd09ad92	-0.033612795
72	0x3cd9db9e	0.02659398
73	0x3d1e7639	0.038686965
74	0x3db7a00e	0.08966075
75	0xbd680883	-0.056648742
76	0x3d9070c8	0.07052761
77	0x3c8977e6	0.016780805
78	0x3d26cf47	0.04072502
79	0x3d1c4cfe	0.038159363
80	0xbd24583f	-0.04012322
81	0x3d738f42	0.059462793
82	0xbcd58f3d	-0.026069278
83	0xbcf7bc22	-0.030241076
84	0xbcb849c6	-0.022496115
85	0x3bb39333	0.005480194
86	0x3dbd7bd2	0.092521325
87	0xbce6ab4a	-0.028157849
88	0xbc45d2df	-0.012074201
89	0x3a8fdf9b	0.0010976674
90	0xbc8c410d	-0.017120862
91	0x3dfb2204	0.12262347
92	0xbbc89a14	-0.006121883
93	0x3ce3904b	0.027778765
94	0x3dc784a0	0.09742093
95	0x3d403c2c	0.046932384
96	0x3dce0e8c	0.10061368
97	0x3ba3f640	0.0050037205
98	0xbd76bab6	-0.060236655
99	0x3c941858	0.018078014
100	0xbd7cdb15	-0.06173237
101	0x3b2b1aec	0.0026108576
102	0xbd9586ea	-0.073011234
103	0xbc69bbc2	-0.014265956
104	0x3d78cf25	0.060744423
105	0x3d6a7d35	0.057248313
106	0x3d469622	0.04848302
107	0xbd7a95d2	-0.061178036
108	0x3db4b1fd	0.08823011
109	0x3d0e25de	0.03470408
110	0xbd1dfb25	-0.03856959
111	0x3d060510	0.03271967
112	0xbc8833b9	-0.016626226
113	0x3d8c9954	0.068651825
114	0xb9482b45	-0.00019089605
115	0xbcdf823a	-0.027283777
116	0xbd7cd8a7	-0.061730053
117	0x3d131f41	0.035918478
118	0xbd855423	-0.065101884
119	0x3cb0def2	0.021590684
120	0xbd81a3cd	-0.06330071
121	0x3d823939	0.063585706
122	0x3d3898ea	0.045067705
123	0x3dbbe578	0.09174627
124	0xbd3774e4	-0.04478921
125	0x3d8bcd13	0.06826224
126	0xbd64f11d	-0.055894006
127	0x3ca24d47	0.01981224
128	0xbc9e7ac0	-0.019345641
129	0xbdc8a84d	-0.09797726
130	0x3d799599	0.060933683
131	0x3d3a834b	0.045535367
132	0x3d4d649a	0.05014477
133	0x3db542d5	0.08850638
134	0x3cd4c3b6	0.025972228
135	0x3c5f0583	0.013612154
136	0xbd75086e	-0.059822492
137	0x3d6072e1	0.054797057
138	0xbba52f10	-0.0050410107
139	0x3d68c7e3	0.05683125
140	0x3d2a67c5	0.04160287
141	0xbd0db2b5	-0.034594256
142	0x3c937d17	0.018003983
143	0xbd21cb08	-0.039500266
144	0xbca120e8	-0.019669011
145	0x3cbb02d6	0.0228285
146	0xbd9d90d6	-0.07693641
147	0xbd8ee6b7	-0.06977599
148	0xbd37e3cc	-0.04489498
149	0x3d2a5f6e	0.041594915
150	0xbccf6c9c	-0.025320344
151	0xbc83ee99	-0.016104983
152	0xbd57b217	-0.052660074
153	0xbbea2971	-0.0071460535
154	0xbca394d5	-0.01996843
155	0xbc4de1ef	-0.012566074
156	0xbd3deb5c	-0.046367034
157	0xbbc22e49	-0.005925928
158	0xbccfcc72	-0.025366042
159	0xbc747580	-0.014920592
160	0xbd581afb	-0.052760106
161	0x3cbb4bcf	0.022863297
162	0xbdc37a12	-0.095447674
163	0x3c9dd998	0.019268796
164	0xbd5e0b55	-0.054210026
165	0xbd9f065f	-0.07764887
166	0x3d0920bb	0.03347848
167	0xbcb7662d	-0.022387588
168	0xbe11130a	-0.14167419
169	0xbd6037b9	-0.05474064
170	0x3d84f1bf	0.06491422
171	0x3cd7828d	0.026307369
172	0xbd42de0c	-0.04757504
173	0xbd36ee2b	-0.04466073
174	0x3c2b07e0	0.010438889
175	0x3d82d9c7	0.06389194
176	0xbc5cd7cd	-0.013479185
177	0xbc8708b4	-0.016483642
178	0xbda4d98f	-0.080493085
179	0x3d0c40a0	0.03424132
180	0xbc5dc45d	-0.013535586
181	0x3db1e9e7	0.086871915
182	0x3d9a2fa4	0.07528618
183	0x3d402070	0.046905935
184	0xbd83915f	-0.06424212
185	0xbc944361	-0.018098535
186	0xbdaf5d14	-0.08562675
187	0x3ba6292a	0.005070825
188	0xbc72130e	-0.014775051
189	0xbd8d6695	-0.069043316
190	0x3d373fad	0.04473846
191	0xbdfca47c	-0.123360604
192	0x3d6c6750	0.057715714
193	0xbd80e705	-0.062940635
194	0xbd38c46d	-0.0451092
195	0x3dab7416	0.08371751
196	0x3cc90a86	0.02454115
197	0xbcad4140	-0.021149278
198	0xbd907c2c	-0.07054934
199	0x3d8bf85e	0.06834482
200	0xbdf34fcc	-0.118804544
201	0x3db80a3f	0.08986329
202	0xba22e8b3	-0.00062144845
203	0xbd25f603	-0.04051782
204	0x3d967fa0	0.07348561
205	0x3d92ec65	0.07173995
206	0xbd8dd66b	-0.069256626
207	0xbdcaa07b	-0.098938905
208	0xbd0a3290	-0.033739626
209	0x3dc933a7	0.09824305
210	0x3b39b892	0.0028338772
211	0x3d3a537a	0.045489766
212	0xbd64f120	-0.055894017
213	0xbb340757	-0.0027470195
214	0xbd9850c6	-0.07437281
215	0x3dbf070f	0.09327518
216	0x3a3d8753	0.0007229943
217	0x3d148a9f	0.036265012
218	0xbcf2ba6f	-0.029629914
219	0x3d6a59ef	0.057214674
220	0x3cf09f15	0.029372731
221	0xbd8b00c2	-0.06787254
222	0xbd47903f	-0.04872155
223	0x3d77f05b	0.060531955
224	0xbd9bc2d4	-0.0760552
225	0xbd97c052	-0.07409729
226	0xbdd1910a	-0.10232742
227	0x3cb99c6d	0.022657597
228	0x3d84a133	0.06476059
229	0xbda1ba42	-0.07896854
230	0x3d9ec98f	0.07753288
231	0x3cf85f92	0.030319009
232	0xbda3fdf7	-0.08007424
233	0xbc469e94	-0.012122769
234	0xbcf19835	-0.029491523
235	0x3ca22f64	0.019797988
236	0xbdcde024	-0.10052517
237	0x3d668fea	0.05628959
238	0x3d4d01af	0.050050434
239	0x3d5a934e	0.053363137
240	0xbc8ff907	-0.0175748
241	0x3d7632d8	0.060107082
242	0x3d8e09c8	0.069354594
243	0xbd8fabac	-0.07015166
244	0x3d670f7f	0.056411263
245	0xbd816f2c	-0.063200325
246	0xbd892215	-0.06695954
247	0x3bf3929f	0.00743325
248	0xbd5676bc	-0.052359328
249	0x3ca9fa46	0.020749222
250	0xbcaefa3b	-0.021359554
251	0x3d8f4991	0.069964536
252	0x3d871b93	0.06597056
253	0xbd21004f	-0.039306935
254	0x3da6fd28	0.081537545
255	0xbcd22dca	-0.0256566

gru.weight_ih_l1 f4 [384, 128]
0	0x3d71c5c5	0.0590265
1	0xbd9ba817	-0.0760042
2	0xbd577cfb	-0.052609425
3	0xbd2a3d93	-0.041562628
4	0x3e30d61c	0.17269176
5	0x3d77f5b3	0.06053705
6	0x3ce2d146	0.02768768
7	0xbcda1566	-0.026621532
8	0xbda604d3	-0.08106389
9	0xbdce18d8	-0.10063332
10	0xbd938a08	-0.07204062
11	0xbd2510ac	-0.040299103
12	0x3cc164d4	0.023607649
13	0xbd5c5a96	-0.053797327
14	0xbd790216	-0.060793005
15	0xbd3b9a7c	-0.045801625
16	0xbccdc66f	-0.025119035
17	0xbdb2196c	-0.08696255
18	0x3cfff7c9	0.031246083
19	0x3c42e339	0.011894994
20	0x3dc85a38	0.09782833
21	0x3d9e6b3a	0.077352956
22	0x3ceefe0d	0.029173875
23	0x3dae70e3	0.08517625
24	0xbd4aeef0	-0.049544275
25	0xbd352b22	-0.044230588
26	0xbd165cce	-0.0367096
27	0x3c80061b	0.015627911
28	0xbd80be23	-0.06286266
29	0xbe024c5c	-0.12724441
30	0xbdbd6d69	-0.09249384
31	0x3d7ce6ce	0.06174355
32	0x3d2fcff0	0.042922914
33	0x3df21071	0.11819542
34	0x3ba5c7db	0.005059225
35	0x3d002036	0.03128072
36	0xbd666e5b	-0.056257587
37	0xbd14b6ca	-0.036307134
38	0xbdc3c886	-0.09559731
39	0xbc99b900	-0.018764973
40	0xbd5a9b37	-0.05337068
41	0xbcf767fc	-0.03020095
42	0xbdc7a46f	-0.0974816
43	0x3d711eea	0.058867373
44	0x3d066d7c	0.032819256
45	0x3dbe6c91	0.09298051
46	0x3da04bbd	0.07826946
47	0xbd4728ec	-0.04862301
48	0xbcb8f506	-0.022577774
49	0xbc9d7abf	-0.019223569
50	0x3d21241e	0.039341085
51	0xbc108d1c	-0.008822706
52	0x3e15fcc6	0.14647207
53	0xbd83feff	-0.06445121
54	0xbd43c335	-0.047793586
55	0x3d1a4349	0.037661824
56	0xbd79d2a2	-0.06099189
57	0xbc024eb4	-0.007953335
58	0xbd7627c2	-0.06009651
59	0x3cd8cf9c	0.026466183
60	0xbdc6a7ae	-0.09699951
61	0xbc0f310c	-0.008739721
62	0x3d35d7c5	0.044395227
63	0xbcca5b68	-0.024701789
64	0xbd8c6f15	-0.06857125
65	0xbdc70fa4	-0.0971978
66	0xbdd31309	-0.10306365
67	0xbda34be6	-0.07973461
68	0xbcf470d8	-0.029838964
69	0xba4b13fd	-0.0007746814
70	0xbdb71639	-0.089397855
71	0x3d18512b	0.037186783
72	0x3cfbfc44	0.030759938
73	0x3de22096	0.110413715
74	0x3c0829e8	0.0083107725
75	0xbca137d1	-0.019679936
76	0xbd145fa8	-0.036224037
77	0xbd8b35a7	-0.06797343
78	0xbd878e37	-0.06618922
79	0xbd540e27	-0.05177131
80	0xbd45ca4b	-0.048288625
81	0xbc9d823f	-0.019227145
82	0xbd1570e2	-0.036484607
83	0x3c05fc25	0.008177792
84	0xbdcc756c	-0.09983334
85	0xbda6d46e	-0.081459865
86	0x3da68737	0.08131259
87	0xbd8176b6	-0.063214704
88	0x3d46b3ba	0.048511244
89	0xbdbb6ca8	-0.09151584
90	0x3d35e27f	0.044405457
91	0xbba496af	-0.0050228457
92	0xbd02f082	-0.031967647
93	0x3d900233	0.070316695
94	0x3d515886	0.051109813
95	0xbe078327	-0.13233624
96	0xbdb45446	-0.088051364
97	0x3d8c2954	0.0684382
98	0x3d91db96	0.07121961
99	0xbd6d0258	-0.057863563
100	0x3d5b4350	0.05353099
101	0x3d838abf	0.06422948
102	0xbd35c7eb	-0.04438011
103	0x3d0c1ae5	0.034205336
104	0x3c84e435	0.016222099
105	0x3d2c0f65	0.04200687
106	0x3da4f605	0.08054737
107	0xbd2cd497	-0.04219493
108	0xbbb95035	-0.0056553134
109	0xbd6a4718	-0.057196707
110	0xbd989abd	-0.07451389
111	0xbda71a8b	-0.081593595
112	0x3dbf663a	0.0934567
113	0x3d7c88e6	0.061653994
114	0xbb812453	-0.0039410978
115	0xbc894c66	-0.016760062
116	0x3ce9ac03	0.028524404
117	0xbd7935f3	-0.060842466
118	0x3d7a0b2f	0.06104582
119	0xbdca36b6	-0.098737165
120	0xbd5f2efd	-0.05448817
121	0x3d1c0d60	0.038098693
122	0xbd9b11bc	-0.07571742
123	0xbc901ff3	-0.01759336
124	0x3d81f79b	0.06346055
125	0x3d438a4e	0.04773932
126	0xbd74d628	-0.059774548
127	0x3d68edc5	0.05686738
128	0x3dd09c65	0.1018608
129	0xbc822c3c	-0.015890233
130	0x3d93ab7f	0.07210445
131	0xbcf3fdd6	-0.029784124
132	0x3cd23cb8	0.025663719
133	0x3dc249dd	0.094867446
134	0x3d6ecd9a	0.058301546
135	0x3d803bfc	0.06261441
136	0x3dd21938	0.10258716
137	0xbc0d2b65	-0.008616303
138	0x3e050497	0.12990032
139	0x3da0ff25	0.07861165
140	0xbde70501	-0.11280251
141	0xbd8ead93	-0.069667004
142	0x3d48c8e7	0.04901972
143	0xbda9c98d	-0.08290396
144	0x3d92698f	0.0714904
145	0x3dd81c8c	0.1055232
146	0x3ccc2b8a	0.024923105
147	0xbd84335d	-0.06455109
148	0x3c86c383	0.01645065
149	0x3d6565bd	0.05600523
150	0xbd020a60	-0.031748176
151	0xbdb4a1c2	-0.08819915
152	0xbdc5bb67	-0.09654885
153	0xbdcadce3	-0.09905412
154	0xbd600e6b	-0.05470125
155	0xbb3c5ba4	-0.0028741146
156	0x3ddf283e	0.108963475
157	0x3c1f497c	0.00972211
158	0x3d02851d	0.031865228
159	0x3dae9e9c	0.08526346
160	0x3d911a60	0.07085109
161	0x3ceb2ebb	0.028708806
162	0x3cee3dc4	0.029082187
163	0x3cad214e	0.021134045
164	0xbd68f971	-0.05687851
165	0x3d3d0b9c	0.04615365
166	0x3b0f1027	0.0021829696
167	0x3c22512e	0.00990705
168	0xbdc0b17b	-0.09408852
169	0x3d3c62b1	0.045992557
170	0xbdb48bb3	-0.08815708
171	0x3d73faad	0.059565235
172	0x3d39771a	0.0452796
173	0xbc2fdcb8	-0.010733776
174	0x3d5adf56	0.053435646
175	0x3dc31051	0.095245965
176	0x3cb5cf22	0.022193495
177	0x3d83c661	0.06434322
178	0x3c48953f	0.012242614
179	0xbcc13f12	-0.023589645
180	0x3da03c6a	0.07824023
181	0x3ce895d3	0.028391754
182	0xbd43fba0	-0.04784739
183	0xbd32146a	-0.0434765
184	0x3b9fa2a5	0.0048716837
185	0x3db3beb7	0.0877661
186	0xbd687bcf	-0.056758698
187	0xbbc25f41	-0.0059317653
188	0xbd92ecfe	-0.07174109
189	0xbdb90066	-0.09033279
190	0xbdb90467	-0.09034043
191	0x3d9a6cab	0.07540258
192	0xbd9f0008	-0.07763678
193	0xbcf1abb2	-0.029500816
194	0x3c4763c3	0.012169781
195	0xbd1f55b0	-0.038900077
196	0xbcea9b21	-0.028638424
197	0x3d225f54	0.039641693
198	0xbd17ae07	-0.0370312
199	0x3d4ab700	0.04949093
200	0xbab141ca	-0.0013523635
201	0xbcdea0ef	-0.027176348
202	0xbc9c7ec7	-0.01910342
203	0x3d081cf1	0.033230726
204	0xbcaee83e	-0.021350976
205	0xbc4c5e97	-0.012473724
206	0x3d878e5c	0.0661895
207	0x3d41a39e	0.047275178
208	0xbc28102f	-0.010257765
209	0x3c8d1d6a	0.01722594
210	0x3c6955a1	0.014241607
211	0xbd85d586	-0.06534867
212	0x3c255279	0.010090464
213	0x3d0c2339	0.03421328
214	0x3c02c7ad	0.007982177
215	0x3d0ef6fb	0.034903508
216	0x3bbf6214	0.0058405492
217	0xbd90b94c	-0.070665926
218	0x3d96eea4	0.07369736
219	0x3db6887b	0.0891275
220	0xbd216840	-0.03940606
221	0xb9ee7c7c	-0.00045487646
222	0xbc86a2e2	-0.01643509
223	0xbd8ec8c1	-0.069718845
224	0x3ce19d18	0.027540728
225	0xbda4def3	-0.08050337
226	0x3c82edc7	0.015982522
227	0xbca546c9	-0.020175355
228	0xbce28a82	-0.027653936
229	0xbc5db404	-0.013531689
230	0xbd0a0ee8	-0.033705622
231	0xbd33ed60	-0.04392755
232	0xbd9dda0d	-0.077076055
233	0x3cf608f9	0.030033575
234	0xbd0652e7	-0.032793906
235	0x3da931ca	0.0826145
236	0xbc914c96	-0.017736714
237	0x3d8792db	0.06619807
238	0xbd937394	-0.07199779
239	0x3daae891	0.0834514
240	0xbdb1203c	-0.08648726
241	0x3d97bbca	0.07408865
242	0xbd037da3	-0.03210224
243	0x3db5ba1f	0.088733904
244	0x3ba3f7ab	0.0050038896
245	0x3d53bb41	0.05169225
246	0xbb56e534	-0.0032790424
247	0xbdf83ad2	-0.12120594
248	0xbb9723ab	-0.0046124063
249	0x3d29d600	0.041463852
250	0x3cfff0c1	0.03124273
251	0xbced3e12	-0.028960261
252	0x3dcf14ac	0.10111365
253	0xbcf2e9e1	-0.029652538
254	0xbc5acf39	-0.01335507
255	0x3cf054ca	0.029337306

gru.weight_hh_l1 f4 [384, 128]
0	0x3b84a287	0.004047695
1	0xbd81c132	-0.06335677
2	0x3cc00d40	0.023443818
3	0xbce72174	-0.028214194
4	0xbd94607c	-0.072449654
5	0x3ccc49db	0.02493756
6	0xbc224165	-0.009903287
7	0x3d534378	0.051578015
8	0x3de0cea5	0.10976914
9	0xbd6b4c0d	-0.057445575
10	0xbd7c5e61	-0.061613444
11	0x3d2268d0	0.03965074
12	0x3d81f6e6	0.0634592
13	0xbd40d843	-0.047081243
14	0x3d2d085a	0.042244293
15	0x3c05992e	0.008154197
16	0xbdc4d9d9	-0.09611864
17	0xbd3761f8	-0.044771165
18	0x3d79dd8d	0.061002303
19	0x3c9de547	0.019274367
20	0xbced2a58	-0.028950855
21	0xbda5ab8b	-0.0808936
22	0x3cfbc4ca	0.030733485
23	0xbdc90ca1	-0.09816862
24	0xbd3de0e8	-0.046357065
25	0xbd800df0	-0.06252658
26	0x3cb56ba3	0.022146052
27	0x3cf5a796	0.029987138
28	0xbcc7414e	-0.024323132
29	0xbcd9e06b	-0.026596269
30	0x3dc6a381	0.09699155
31	0x3da021b8	0.07818931
32	0xbd3fca15	-0.04682358
33	0x3bf03ed8	0.0073317103
34	0xbd94f03d	-0.07272384
35	0x3d2700fe	0.04077243
36	0x3b223b67	0.0024754645
37	0x3dfd7b4d	0.123770334
38	0xbdd40530	-0.10352552
39	0xbe0065e1	-0.12538864
40	0x3a5aec4a	0.000835125
41	0xbdf7842a	-0.12085755
42	0xbd65e387	-0.05612519
43	0xbbd2158f	-0.0064112614
44	0x3befd33d	0.0073188827
45	0xbd02fe9d	-0.0319811
46	0x3b49795a	0.0030742497
47	0xbd19b581	-0.03752661
48	0x3d883db4	0.06652394
49	0x3dffd15e	0.124911055
50	0xbbef4f07	-0.007303122
51	0xbca3b0b4	-0.01998172
52	0xbce153c9	-0.027505772
53	0x3c8c19aa	0.017102081
54	0xbc6e91de	-0.014561145
55	0xbd81e3b7	-0.06342261
56	0xbd1fc902	-0.039010055
57	0x3bbd0598	0.005768489
58	0x3d8276fc	0.06370351
59	0x3d99883b	0.07496687
60	0xbdf43879	-0.11924834
61	0x3c961b19	0.018323468
62	0xbd86d6d9	-0.06583948
63	0x3d7ca72b	0.06168286
64	0x3d87fde4	0.06640223
65	0xbde17b75	-0.11009876
66	0xbdaec410	-0.0853349
67	0x3ddc93c3	0.10770371
68	0xbd2427de	-0.040077083
69	0xbd6540c1	-0.055969957
70	0xbda1db7a	-0.0790319
71	0xbd29b0d0	-0.041428387
72	0x3c2abe9a	0.0104214195
73	0x3da0c713	0.078504704
74	0xbdbd8960	-0.09254718
75	0x3c44841c	0.011994388
76	0x3dcece3a	0.10097928
77	0x3c7ced89	0.015437492
78	0x3d3b569f	0.045736905
79	0x3d7df8f8	0.062005013
80	0x3d315411	0.043293063
81	0xbd2c1004	-0.04200746
82	0x3d56d55e	0.052449577
83	0xbd7b7914	-0.061394766
84	0xbcd088b5	-0.025455812
85	0x3caff9bd	0.02148139
86	0x3db73c28	0.08947021
87	0xbdc899b0	-0.097949386
88	0x3d809718	0.06278819
89	0x3dda9e00	0.10674667
90	0xbd5acdb3	-0.053418826
91	0xbb0e46d4	-0.0021709697
92	0xbdb36ffb	-0.08761593
93	0xbd5ccccc	-0.053906247
94	0x3e147783	0.14498715
95	0x3d925af0	0.07146251
96	0xbca6355e	-0.02028912
97	0xbe25cc08	-0.16191113
98	0x3dad7b59	0.08470792
99	0x3d80372a	0.06260522
100	0x3de16965	0.110064305
101	0x3cccd92f	0.025005905
102	0x3d0b4af3	0.034007024
103	0xbd70c6c8	-0.058783323
104	0x3a0f89ee	0.000547557
105	0xbd6b927b	-0.05751274
106	0xbd07afb1	-0.033126537
107	0x3db57ca2	0.088616624
108	0x3d31ee32	0.04344005
109	0xbc627fdd	-0.01382443
110	0x3d9ca4a8	0.07648593
111	0x3dbcdce2	0.092218176
112	0xbce51f9e	-0.027969178
113	0xbdf9c639	-0.12196011
114	0x3da5a142	0.08087398
115	0xbdbc9ce1	-0.0920961
116	0xbe168134	-0.14697725
117	0x3c970b8b	0.018438121
118	0x3d7d66f5	0.061865766
119	0x3d4c1e6a	0.049833693
120	0x3da2fc22	0.07958247
121	0x3e079bb4	0.1324299
122	0xbccff5d9	-0.025385784
123	0x3d95df04	0.073179275
124	0x3c5f33fb	0.013623233
125	0x3d88a867	0.06672745
126	0x3b11ff8a	0.0022277557
127	0x3d13961d	0.03603183
128	0xbe248128	-0.16064894
129	0xbd1e9050	-0.038711846
130	0x3da351cb	0.07974585
131	0x3d3b792c	0.045769855
132	0xbd3ef3a1	-0.04661906
133	0x3d8ebf07	0.06970029
134	0xbd00dc52	-0.031460114
135	0x3bec853e	0.007218032
136	0x3d973d9b	0.07384797
137	0xbb4ce904	-0.0031266818
138	0xbd7e364e	-0.062063508
139	0x3d8a9253	0.067661904
140	0x3da327e6	0.079665944
141	0xbc964b8b	-0.018346569
142	0x3c7552d0	0.014973357
143	0x3c112b6c	0.00886045
144	0x3d8105ab	0.06299909
145	0xbdd56b58	-0.10420865
146	0xbc7756ac	-0.015096348
147	0x3d059139	0.0326092
148	0xbd2bb890	-0.04192406
149	0xbd9f7399	-0.077857204
150	0x3d40727a	0.046984173
151	0xbd2f35be	-0.042775862
152	0xbbd493fb	-0.006487367
153	0xbda99a87	-0.08281427
154	0x3cddd015	0.02707676
155	0xbd1216e8	-0.035666376
156	0xbd42abca	-0.047527112
157	0x3dee0ec6	0.116239116
158	0xbcc3e3d7	-0.023912353
159	0x3d64f5a8	0.05589834
160	0xbda6fbcf	-0.081534974
161	0xbdc67b8f	-0.09691536
162	0xbd79c896	-0.06098231
163	0xbcc14dd1	-0.023596676
164	0xbd68a630	-0.056799114
165	0xbd82b749	-0.06382615
166	0x3d7083e7	0.058719542
167	0xbd05531f	-0.032549974
168	0x3d1faf84	0.038985744
169	0xbba98ac8	-0.0051740147
170	0x3cc88bb9	0.024480687
171	0xbd03fb28	-0.032221943
172	0x3d3ec526	0.046574734
173	0x3bcb21be	0.0061990907
174	0x3bfca163	0.0077096685
175	0xbc0cdf03	-0.008598092
176	0x3dd321c6	0.10309176
177	0xbdb30cae	-0.08742653
178	0x3c1db218	0.00962498
179	0x3d97cc25	0.07411984
180	0x3e05794d	0.13034554
181	0xbbe7153f	-0.0070520933
182	0x3d116c1c	0.03550349
183	0xbd315145	-0.043290395
184	0xbcfd63ff	-0.03093147
185	0xbcc1355c	-0.023585014
186	0x3cedc8ae	0.029026356
187	0x3de785ec	0.113048404
188	0x3db608f2	0.08888425
189	0x3d57daf8	0.05269906
190	0x3bc66252	0.006054201
191	0x3d46c20a	0.048524894
192	0x3d244020	0.040100217
193	0x3bd50901	0.0065013175
194	0x3cd3e175	0.025864342
195	0xbc18a904	-0.00931764
196	0xbb6ca7ec	-0.0036110831
197	0xbcf8f695	-0.030391017
198	0xbcaec4e1	-0.021334114
199	0xbcbe6c61	-0.023245038
200	0xbca506f5	-0.020144919
201	0x3db9c184	0.09070113
202	0x3d2ca3c3	0.042148363
203	0x3d3422ac	0.04397838
204	0x3dcd95de	0.100383505
205	0x3d7e580b	0.062095683
206	0x3d15b625	0.03655066
207	0xbdc9afe8	-0.098480046
208	0xbc0b4a1a	-0.008501554
209	0xbd3359a5	-0.043786664
210	0xbda67c7b	-0.081292115
211	0xbc8d7816	-0.017269175
212	0x3db16250	0.0866133
213	0xbc84ad57	-0.016195936
214	0x3c8d9ca5	0.017286608
215	0x3cb96cec	0.022634946
216	0xbdb6b3d3	-0.089210175
217	0x3c0b6b34	0.008509446
218	0x3bad546b	0.0052896044
219	0xbd89a470	-0.06720817
220	0xbd14c3c9	-0.036319528
221	0xbda426b0	-0.080151916
222	0xbd931681	-0.07182027
223	0xbdf18ccf	-0.11794435
224	0xbd566ae6	-0.05234804
225	0xbd93efd2	-0.072234765
226	0xbdcb274e	-0.09919606
227	0x3da0654d	0.078318216
228	0x3d96c8a6	0.073624894
229	0x3d384bc4	0.04499413
230	0x3d15b652	0.036550827
231	0xbd8baec8	-0.06820446
232	0xbd6514e1	-0.055928115
233	0x3d035453	0.03206284
234	0x3adab220	0.0016685165
235	0x3d4ab09e	0.04948484
236	0xbc8bb540	-0.0170542
237	0x3cb5229e	0.022111233
238	0x3d54107a	0.051773526
239	0x3d5df0bf	0.05418467
240	0xbbcc1f10	-0.006229289
241	0x3bbaace6	0.0056968806
242	0xbcd95c63	-0.026533311
243	0x3d11cdf8	0.035596818
244	0x3d50c10f	0.050965365
245	0x3d933e48	0.071896136
246	0xbe0a65eb	-0.13515441
247	0x3d84de3d	0.06487701
248	0x3d6935a2	0.056935914
249	0x3c8def10	0.017325908
250	0x3c5de60c	0.013543617
251	0xbd88f278	-0.06686872
252	0x3d02f497	0.03197154
253	0x3d938709	0.0720349
254	0xbd7d6c43	-0.061870825
255	0xbc0f9e26	-0.008765733

gru.bias_ih_l1 f4 [384]
0	0x3db4f70c	0.08836183
1	0xbd5459d1	-0.051843468
2	0x3c359df0	0.0110850185
3	0xbc1d2123	-0.00959042
4	0xbc97eccd	-0.018545533
5	0x3d814e73	0.06313791
6	0xbcf59cdb	-0.029982021
7	0x3d92970f	0.071577184
8	0x3cb922df	0.022599636
9	0x3da2e7af	0.079543464
10	0x3c4dffa8	0.01257316
11	0x3db903bb	0.09033915
12	0x3d042402	0.032260902
13	0x3b881891	0.004153319
14	0x3d620c2c	0.05518739
15	0x3da2a5cd	0.0794178
16	0x3cb884cd	0.022524262
17	0x3d8ce8a1	0.06880308
18	0x3d632e50	0.05546409
19	0x3d4a4360	0.04938066
20	0x3cbbac7e	0.0229094
21	0x3d7f9cf2	0.062405534
22	0xbd6dd8ed	-0.058068205
23	0xbaa74e7d	-0.001276448
24	0x3bfc1582	0.0076929936
25	0x3d6d50cf	0.057938393
26	0x3ca16353	0.019700682
27	0x3d92501f	0.07144188
28	0x3dcfd1e3	0.101474546
29	0x3db76010	0.08953869
30	0x3d688c81	0.05677462
31	0xbd642064	-0.055694953
32	0x3d73aee1	0.05949295
33	0xbbde12ef	-0.0067771594
34	0xbcf7e848	-0.030262128
35	0x3d2e9224	0.04261984
36	0x3dbcfaef	0.09227549
37	0x3d000cec	0.031262323
38	0xbcb30330	-0.021852106
39	0xbd326168	-0.043549925
40	0xbd3cfccc	-0.046139523
41	0xbc9d8088	-0.019226328
42	0xbca93535	-0.020655254
43	0x3d1d730c	0.038439795
44	0x3d4a37c9	0.049369607
45	0xbc933f40	-0.017974496
46	0x3c308ed1	0.010776238
47	0x3cc0e899	0.023548411
48	0x3de57b1a	0.112051204
49	0x3c8ad268	0.016946033
50	0x3d1e786c	0.038689062
51	0x3dc202a3	0.09473159
52	0xbccbf5ac	-0.024897419
53	0x3b391635	0.0028241996
54	0xbce5605a	-0.028000046
55	0x3db91676	0.09037487
56	0xbd90e17b	-0.07074257
57	0x3dfad5c6	0.12247805
58	0x3d01be0e	0.03167539
59	0x3dcef3fa	0.101051286
60	0xbb2b0abc	-0.0026098927
61	0xbcbff234	-0.023430921
62	0x3d83b974	0.06431857
63	0x3d8cdc97	0.06878012
64	0x3cabe9ab	0.020985445
65	0xbd2e8ef0	-0.042616785
66	0xbceb2960	-0.028706253
67	0x3d9175a3	0.071025155
68	0x3d496651	0.049169842
69	0x3bcd5852	0.006266632
70	0x3db64fae	0.089019164
71	0xbd0c1b91	-0.034205977
72	0x3d0130ce	0.031540684
73	0x3d99751c	0.0749304
74	0xbdc59297	-0.096471004
75	0xbcb7142a	-0.022348482
76	0xbc7f3e84	-0.01557887
77	0x3dac9c00	0.08428192
78	0xbcdb6b13	-0.026784455
79	0x3d4f2478	0.05057189
80	0xbdaa7110	-0.08322346
81	0x3d9aabdc	0.07552311
82	0xbd29593d	-0.04134487
83	0x3bf0e2ef	0.0073512713
84	0x3d9b3636	0.07578699
85	0x3c7d0c70	0.01544486
86	0x3cfcf12a	0.030876715
87	0xbbc64515	-0.0060507157
88	0x3c0b4aaf	0.008501693
89	0x3dfd70e1	0.123750456
90	0x3c816d55	0.015799204
91	0x3d6f02ae	0.058352165
92	0x3d8a5ec4	0.06756356
93	0x3cff52be	0.031167384
94	0xbd122b6b	-0.035685938
95	0x3b05f3b4	0.0020439448
96	0x3d6e6dfb	0.058210354
97	0x3d755edd	0.05990492
98	0xbca6d0d7	-0.020363254
99	0x3d7173f2	0.058948465
100	0x3d65db1d	0.056117166
101	0xbd6dbbb1	-0.058040325
102	0x3d909679	0.070599504
103	0x3d9f88c9	0.077897616
104	0xbd16745a	-0.036732055
105	0xbd6693e3	-0.05629338
106	0xbd364154	-0.044495896
107	0x3daf4536	0.08558123
108	0x3d54df68	0.05197087
109	0x3d4a6fa4	0.049422875
110	0xbc1410d9	-0.00903722
111	0x391b8565	0.00014831645
112	0xbd5735cc	-0.05254154
113	0xbd865a8c	-0.06560239
114	0x3c034ac9	0.008013436
115	0xbd52b3eb	-0.051441114
116	0xbcd8d4d3	-0.02646867
117	0xbd99bb7f	-0.07506465
118	0x3de94f84	0.113921195
119	0x3d8c8174	0.06860629
120	0x3d7f71ba	0.062364317
121	0xbcff3b87	-0.031156315
122	0x3c8210e8	0.015877202
123	0x3d3bd418	0.045856565
124	0xbcecabff	-0.028890608
125	0xbd64ad10	-0.055829108
126	0x3dda5bcd	0.10662041
127	0xbc9efc8d	-0.019407535
128	0x3d67a195	0.05655058
129	0xbd9237ac	-0.07139525
130	0xbd592e72	-0.05302281
131	0x3d71e606	0.059057258
132	0x3d27b9a1	0.040948514
133	0x3d8b96a1	0.068158396
134	0x3cbcc11b	0.023041299
135	0x3db0c90d	0.086320974
136	0xbd0cd4c2	-0.03438259
137	0x3d94e333	0.07269897
138	0xbdb23bc4	-0.08702806
139	0xbc965c69	-0.018354611
140	0x3daa48cb	0.083146654
141	0xbd04013f	-0.03222775
142	0xbc671515	-0.014104147
143	0xbb26a6f9	-0.0025429113
144	0xbd68e29b	-0.056856733
145	0x3dabdaff	0.083913796
146	0xbc691380	-0.014225841
147	0x3ce20e99	0.027594851
148	0x3d6b8fcf	0.057510193
149	0x3cee78c6	0.029110324
150	0xbcac4658	-0.021029636
151	0x3dc25413	0.09488692
152	0xbca38f1a	-0.019965697
153	0x3d93c585	0.07215408
154	0x3ca804db	0.020510128
155	0xbd86a5b7	-0.06574576
156	0xbc9c2548	-0.019060746
157	0xbada048d	-0.0016633436
158	0x3ce03ef3	0.027373767
159	0x3d375f8b	0.04476885
160	0xbd9f2073	-0.07769861
161	0xbd76611e	-0.060151212
162	0x3d57937e	0.052630894
163	0x3cb627ef	0.022235839
164	0xbd0db810	-0.034599364
165	0xbca00fef	-0.019538848
166	0xbc1e0ffd	-0.009647367
167	0xbd97bc3d	-0.074089505
168	0x3d30de33	0.043180656
169	0xbdbc5aa1	-0.091969736
170	0x3dc80ed3	0.097684525
171	0xbcbb8616	-0.022891086
172	0xbd71c2b3	-0.05902357
173	0xbd85b7ef	-0.06529223
174	0x3d553e1e	0.052061193
175	0xbd88b053	-0.06674256
176	0x3d71ef34	0.059066013
177	0xbd20d32a	-0.03926388
178	0x3dd3c290	0.10339844
179	0xbcb0fe25	-0.02160556
180	0x3d3a65e7	0.045507338
181	0x3c3c6bce	0.011500312
182	0xbd3ed60a	-0.046590842
183	0xbc1cbff1	-0.009567247
184	0xba9d26c9	-0.0011989708
185	0xbd2e535a	-0.04255996
186	0x3b4a1acf	0.0030838733
187	0x3d8a09af	0.06740128
188	0xbd6cd175	-0.05781694
189	0x3cab5e33	0.020918941
190	0x3c1b70dc	0.009487357
191	0x3d95186d	0.072800495
192	0x3ba6753d	0.005079894
193	0xbdd77f0e	-0.10522281
194	0xbb14a99e	-0.0022684108
195	0xbd910eee	-0.07082926
196	0xbdaf7532	-0.08567275
197	0x3d43c60e	0.0477963
198	0x3d45f102	0.048325546
199	0x3cde750c	0.027155422
200	0x3d50b36c	0.05095236
201	0x3d9cbba2	0.076529756
202	0x3d1d8d90	0.038465083
203	0xbdb2eeb8	-0.08736938
204	0xbd3e637a	-0.046481587
205	0x3d52e0be	0.051483862
206	0xbd99b455	-0.07505099
207	0x3da1443a	0.07874341
208	0x3d25452d	0.040349174
209	0x3ab15cdf	0.0013531706
210	0x3d4b77ee	0.04967492
211	0x3c0d7f9e	0.008636383
212	0xbd5093a0	-0.050922036
213	0xbd26706b	-0.040634554
214	0x3d9c8ba8	0.07643825
215	0xbdaf4f72	-0.08560075
216	0xbd818839	-0.063248105
217	0x3cb5d446	0.022195946
218	0x3d915f84	0.07098296
219	0x3d0a5adb	0.033778053
220	0x3cc24c23	0.023717945
221	0xbbed2520	-0.0072370917
222	0xbc04e3cc	-0.008110952
223	0x3d345c01	0.044033054
224	0xbd9045a5	-0.07044534
225	0xbcf21fec	-0.029556237
226	0xbd0d0fc7	-0.034438875
227	0x3d80ce7e	0.06289385
228	0x3d9c7a48	0.07640511
229	0x3d8f4ac5	0.06996683
230	0xbd6ba80f	-0.05753332
231	0x3d212a68	0.039347082
232	0x3d3ec4d2	0.04657442
233	0xbcab7dac	-0.020933948
234	0x3ca6b67f	0.020350693
235	0x3c637dcf	0.013884976
236	0xbc86babd	-0.016446466
237	0xbd9c2389	-0.07623965
238	0xbd14bae3	-0.03631104
239	0xbdb59f05	-0.08868221
240	0xbdc0ea63	-0.09419706
241	0x3d681ae9	0.05666629
242	0x3d9a3da8	0.07531291
243	0x3d824d20	0.06362367
244	0xbda8f47d	-0.082497574
245	0x3c4943b8	0.012284212
246	0xbd4efbd8	-0.050533146
247	0xbd88d50e	-0.06681262
248	0x3c52f91e	0.012876777
249	0x3d2a5dca	0.04159335
250	0xbd453f16	-0.048155867
251	0xbc782e4e	-0.015147759
252	0xbce1cd29	-0.027563648
253	0xbd11abb5	-0.035564143
254	0x3d4886c1	0.048956636
255	0xbcad87ca	-0.021182913
